data/case_embeddings_once_mymodel.npy (npy, 657536 bytes, 1 tensors)

array f4 [214, 768]
0.012694609 0.11401255 -0.020884179 -0.02233175 -0.038360626 0.045761906 0.013801907 0.03164755
0.0064514093 0.029469177 0.07573403 -0.015255141 0.030127037 0.02238067 -0.034413792 -0.05220456
-0.038688026 0.055616196 0.023240713 0.024994265 -0.060255755 0.008010162 -0.025740784 0.039283324
0.0034025132 -0.013333031 0.027634678 -0.017953683 -0.00365376 -0.044955935 0.016771534 -0.03694812
-0.03411447 -0.067443945 0.00016515816 0.0040191053 -0.013058136 0.044549264 -0.07156143 -0.047511872
-0.06067894 -0.04138085 -0.015888497 -0.00653294 -0.0006150387 -0.05394247 0.010858652 0.018996475
-0.057980426 0.02421961 -0.015171392 -0.01919489 -0.05628481 -0.031983856 0.013204612 0.0014467608
-0.00013811243 -0.039473876 0.062154155 -0.026606845 0.04051 0.030074833 -0.0015073367 0.033982683
-0.016221518 0.017635858 0.042344935 0.061712883 0.021002676 0.041476633 0.09846139 0.045037188
0.031932253 0.022798257 0.0075296448 -0.013301254 -0.00062846305 -0.0007244922 -0.031155583 0.011297624
-0.049724765 0.035149843 0.02970879 0.025386404 -0.021580232 0.0032002626 0.015776267 0.0051305494
-0.034389272 -0.010926412 0.07094439 -0.026254598 0.026907321 0.053233102 0.022280479 0.031244015
-0.019517109 0.012354618 0.073986664 0.00838431 -0.033885818 0.010783944 -0.026758624 0.04889309
0.058420345 -0.014199622 -0.037669826 0.0127921095 -0.03125656 0.02686522 0.008623458 0.043250713
0.012367808 0.092721075 -0.018719079 0.042597115 -0.018530017 -0.015032367 -0.02083357 0.018142216
-0.026541967 0.0169645 -0.0034673498 -0.014958151 -0.045736145 -0.08590058 -0.032270133 0.014814513
0.031167261 0.040941082 0.00028169397 -0.010346602 0.059597667 0.011683188 -0.030717734 0.005889019
0.043068174 -0.024253832 -0.041913975 -0.0045023626 -0.006511856 -0.0036392808 -0.004754687 0.042838518
0.01817243 -0.025271887 -0.03092895 -0.049247228 0.01614654 -0.0018729317 -0.040275093 -0.052121665
0.0011516706 -0.0032727488 0.049487315 0.07063023 0.045308687 -0.048882917 -0.022828119 -0.02753525
-0.0056311665 0.012790281 0.0013257663 -0.026595129 0.041338895 -0.0030791212 0.06910773 0.039622277
-0.033673376 0.051921625 -0.037287816 0.033467088 -0.05214963 0.016988829 0.0050598914 0.034006048
0.013210051 -0.042143688 -0.060210045 0.030242784 -0.04693713 -0.051262815 -0.027932057 -0.037326988
-0.029875219 -0.032010585 -0.05484308 -0.075946055 -0.04383511 0.0023084155 0.027426615 -0.08317826
-0.045047104 0.019568134 -0.03979197 0.019736066 0.0068824515 0.03633605 -0.01820406 0.02171717
0.006730976 -0.07443799 -0.028116826 0.085871965 -0.005049251 -0.003871675 0.020431507 -0.013625967
-0.046390608 -0.030601945 0.0059339744 0.0073508923 0.048470944 0.014646781 -0.029276675 0.026173746
0.055727296 0.013403464 -0.055091992 0.030662086 -0.030424988 0.018827297 0.024916604 0.008116018
-0.00044815478 -0.03247358 -0.015855078 0.0028140703 0.013959881 -0.0072274995 0.04971104 0.02811259
-0.016790984 0.014897415 0.02085437 0.007494268 0.03945285 0.042740695 -0.05799324 -0.041254416
-0.00520533 -0.02537965 0.007563169 -0.03067453 -0.05941687 -0.051970553 0.03784956 -0.024787769
-0.013046867 0.057265878 -0.043213446 -0.014135368 -0.008106736 -0.050905745 -0.015360477 -0.047480207
00000000: 0dfd 4f3c 697f e93d 4c15 abbc 13f1 b6bc
00000010: 0820 1dbd d670 3b3d 6521 623c dda0 013d
00000020: 5866 d33b 5869 f13c 711a 9b3d b3f0 79bc
00000030: facc f63c ab57 b73c 7af5 0cbd 73d4 55bd
00000040: 5677 1ebd cfcd 633d 4f63 be3c c6c0 cc3c
00000050: bdce 76bd 0e3d 033c 56de d2bc 8de7 203d
00000060: b3fc 5e3b c972 5abc 1f62 e23c 9a13 93bc
00000070: ec73 6fbb b723 38bd 7564 893c e956 17bd
00000080: 9dbb 0bbd 0d20 8abd 4e2e 2d39 b3b2 833b
00000090: cbf1 55bc 4a79 363d cd8e 92bd cf9b 42bd
000000a0: 7b8a 78bd f77e 29bd 9828 82bc 4612 d6bb
000000b0: 8c3a 21ba c8f2 5cbd 7de8 313c 7f9e 9b3c
000000c0: e27c 6dbd 3468 c63c 6e91 78bc 9a3e 9dbc
000000d0: e78a 66bd 8101 03bd 2858 583c 3da1 bd3a
000000e0: 46d2 10b9 5caf 21bd 5b95 7e3d 99f6 d9bc
000000f0: d0ed 253d 7f5f f63c d491 c5ba 6d31 0b3d
00000100: fde2 84bc 1379 903c e271 2d3d a6c6 7c3d
00000110: ce0d ac3c 67e3 293d 20a6 c93d ea78 383d
00000120: 65cb 023d 69c3 ba3c 3dbb f63b 81ed 59bc
00000130: 71bf 24ba d9eb 3dba fe39 ffbc ab19 393c
00000140: 32ac 4bbd 48f9 0f3d d95f f33c 26f7 cf3c
00000150: 07c9 b0bc 7fbb 513b 3b3d 813c 2b1e a83b
00000160: c4db 0cbd b204 33bc 4b4b 913d e213 d7bc
00000170: be6c dc3c f40a 5a3d 8d85 b63c 73f3 ff3c
00000180: 58e2 9fbc 066b 4a3c 5286 973d 585e 093c
00000190: dbcb 0abd 24af 303c e734 dbbc 1f44 483d
000001a0: 2c4a 6f3d 88a5 68bc ad4b 1abd ff95 513c
000001b0: e106 00bd 7314 dc3c 6849 0d3c a927 313d
000001c0: 59a2 4a3c 8ce4 bd3d c158 99bc 507a 2e3d
000001d0: 43cc 97bc 514a 76bc 2aab aabc fc9e 943c
000001e0: 8a6e d9bc 23f9 8a3c 7a3c 63bb 0813 75bc
000001f0: d355 3bbd a5ec afbd b02d 04bd 92b8 723c
00000200: 7c52 ff3c d6b1 273d 53b0 9339 cb84 29bc
00000210: af1c 743d d86a 3f3c c2a3 fbbc acf8 c03b
00000220: 4168 303d f9af c6bc fdad 2bbd 8e88 93bb
00000230: 6861 d5bb 0081 6ebb 35cd 9bbb 7177 2f3d
00000240: 59de 943c fd06 cfbc b65e fdbc 76b7 49bd
00000250: c045 843c 297d f5ba 7ff7 24bd 877d 55bd
00000260: a7f3 963a 9d7b 56bb 36b3 4a3d 95a6 903d
00000270: 9a95 393d 7439 48bd 0902 bbbc 9b91 e1bc
00000280: a685 b8bb 548e 513c 56c5 ad3a 07de d9bc
00000290: f952 293d 15cb 49bb 5b88 8d3d f84a 223d
000002a0: 18ed 09bd c5ab 543d 1cbb 18bd c914 093d
000002b0: da9a 55bd 282c 8b3c 72cd a53b ed49 0b3d
000002c0: f86e 583c dc9e 2cbd cf9e 76bd b7bf f73c
000002d0: 2641 40bd f5f8 51bd c5d1 e4bc 2fe4 18bd
000002e0: e0bc f4bc 881d 03bd 23a3 60bd 9b89 9bbd
000002f0: 728c 33bd c948 173b c8ad e03c 5d59 aabd
00000300: 5083 38bd 5a4d a03c e8fc 22bd 88ad a13c
00000310: 3086 e13b 1cd5 143d ae20 95bc 35e8 b13c
00000320: 858f dc3b f272 98bd 4255 e6bc a4dd af3d
00000330: 3074 a5bb eebb 7dbb fa5f a73c 733f 5fbc
00000340: 1404 3ebd eeb0 fabc c971 c23b c1df f03b
00000350: 7889 463d 0df9 6f3c a3d5 efbc 536a d63c
00000360: 4e42 643d 349a 5b3c 24a8 61bd 0e2f fb3c
00000370: d33d f9bc b43b 9a3c e81d cc3c 0cf9 043c
00000380: 51f6 eab9 0403 05bd 82e2 81bc 446c 383b
00000390: fcb7 643c a9d4 ecbb ce9d 4b3d 604c e63c
000003a0: 3f8d 89bc 4a14 743c c9d6 aa3c 7a92 f53b
000003b0: 5099 213d de10 2f3d 528a 6dbd 64fa 28bd
000003c0: 7991 aabb fce8 cfbc 76d4 f73b 2749 fbbc
000003d0: 1b5f 73bd 13df 54bd 2408 1b3d b80f cbbc
000003e0: 87c2 55bc a08f 6a3d 9500 31bd 0898 67bc
000003f0: 1dd2 04bc 8b82 50bd 83aa 7bbc 9b7a 42bd
