data/case_embeddings_mymodel.npy (npy, 657536 bytes, 1 tensors)

array f4 [214, 768]
00000000: 98d6 123d 41d8 d43d 2424 08bd b609 bfbc
00000010: 7daa 95bc 22c7 143d 1262 133d f423 363d
00000020: 915e 573b 1bc7 ad3c 66af 8a3d 2d23 efbc
00000030: 2f6b c33c ee0f 1d3d 4f1c 17bd 3d43 52bd
00000040: 2f2f bfbc e46e 203d 1517 bf3b f470 673c
00000050: 9125 66bd 6d57 503c 01e4 68bc 13b8 053d
00000060: bf20 3d3c 0c7b 92bc 8b9c 533c 0e2f 83bc
00000070: 155e 453c 3189 4abd 53b6 fd3c a2c7 e1bc
00000080: da34 82bc 6081 90bd d026 3a39 58c9 0b3c
00000090: effb a5bc b4ed 0c3d e975 a5bd e1c6 09bd
000000a0: 1c0c 77bd af7e 02bd e534 0abc c83c 00bc
000000b0: f2f5 753a 1544 7fbd 1584 c23c cf7c 103c
000000c0: edfd 5fbd 9aa5 bb3c 885f bbbb e683 83bb
000000d0: 6e73 49bd dabf 2dbd b085 9cbc 1dbc 04bc
000000e0: 1be2 0d3c fc11 efbc bd11 a53d 81ab e33c
000000f0: 51e9 fa3c 9ca6 0c3d 56f3 fdbb 5eb2 033d
00000100: b7c8 0dbb 2611 08bc 6fa5 183d 54ca fc3c
00000110: 66b2 fe3a dc35 2a3d 9d1d e03d f635 f63c
00000120: 220c 003d 6e84 963c 168f 5f3a 02d7 77bc
00000130: ada1 b23b d3bb acbc 7c8e adbc c8d6 d939
00000140: 9401 0bbd 6ade 223d ea62 023d e982 dc3c
00000150: 2350 9cbc 88ab a63c 0a23 bb3c da02 66ba
00000160: f150 77bd 5262 f2ba 7c94 9c3d da9d febc
00000170: e140 493c c447 4d3d 0190 0139 f48a f73a
00000180: af25 82bc 6d8b db3c be76 923d 0eff cabb
00000190: 51f7 49bd 4a10 4abc e6e6 e8bc 779e 353d
000001a0: b45c 893d efb9 0bbb 3328 30bd 81d1 7c3c
000001b0: a97d 1dbd c047 253c 0946 503c d0e3 d93c
000001c0: ab59 2fbc 9422 c23d 7d05 51bc d1ca 423d
000001d0: 2ce1 8ebc 1c2d 723b 1799 cfbc dec2 da3c
000001e0: e7a1 e0bc a75c 573c c68f 64bb 9223 14bc
000001f0: f2ba a5bc 8ffd b0bd 269f 21bd faf7 513c
00000200: 6adc 0b3d 9390 663d 50cd 163b 0692 0bbc
00000210: 37cd 743d 0c4a 363c 1d57 d7bc 19cc 2b3d
00000220: fe4f 193d 2a52 cbbc 1095 08bd e00f a2bb
00000230: 5681 d8bb 299d e23a e8b0 80bc 50d5 5d3d
00000240: 15f0 bc3c 70a5 acbc 500e efbc 7726 2cbd
00000250: ff6d 383c 7af9 43bb de1e 51bd cef6 53bd
00000260: 3575 acbb e8ea 90ba bf19 ec3c 009b 653d
00000270: a673 603d 6f14 43bd c747 08bd c17f f6bc
00000280: 4bee 4dbb febd 0c3d 5fbb 5cbc 8b65 86bc
00000290: c137 033d e4d8 a9bc ff36 a23d 493d 203d
000002a0: cfdc 23bd 1cde 543d 35ab 6cbd e91e 3c3d
000002b0: b572 51bd c0d6 483d 9448 9cb9 105a 273d
000002c0: 4a65 c33c b268 7bbd c77c 9cbd f727 db3c
000002d0: b11a 61bd c2a2 65bd 1c18 01bd 1ec6 1cbd
000002e0: a37b e8bc 68a4 e8bc b63b 5fbd 4c24 87bd
000002f0: 2734 34bd 20f9 443b f499 a53c dc97 81bd
00000300: 11f0 1dbd aed7 263d 7851 adbc 694c 8c3b
00000310: c5bc 853c 1b94 093d ba25 81bc a36b 693c
00000320: fd84 2d3c 05ea a6bd d888 75bc a7d0 9b3d
00000330: cf1d 803a 715a d8bb 74fc f23c da8d ccbc
00000340: be51 8abd f440 bebc b33a 603c bfb1 f93b
00000350: 53c9 003d 315b a03c 5eef 04bd 9c80 fb3c
00000360: b434 3f3d 273d 2a3c 6f64 4abd bee1 d63c
00000370: 71bd d6bc e4a2 ca3c 2c76 b33c 6a19 97bb
00000380: 5c9e 073c 7948 08bd 1050 55bc 1bcc 643c
00000390: 7b9e a03c 93cf 6e3c 7750 233d 18e8 0f3d
000003a0: d7df 2bbc 788e a03c 6df5 2d3c 5a58 223c
000003b0: 79e3 903d 4690 0a3d aba6 39bd e80e 09bd
000003c0: 7e8f 2dbb 7e02 2ebd 978c 6d3b e1f8 7abc
000003d0: 2d77 30bd 806c 2bbd 4f6e b13c 3fb9 15bd
000003e0: b433 56bc 3aab 663d c1a1 0cbd 923d cfbc
000003f0: c0af b7bb 62d9 d0bc ad58 7dbc 8efe f1bc
0.035849184 0.1039281 -0.03323759 -0.02332006 -0.018269772 0.03632272 0.0359822 0.04446788
0.0032862762 0.021213105 0.06771736 -0.029191578 0.02385482 0.03834527 -0.03689223 -0.051333655
-0.023337929 0.039168254 0.005831609 0.014126051 -0.05618817 0.012716156 -0.014214517 0.03264625
0.011543452 -0.017880939 0.012915741 -0.016013648 0.012046357 -0.049447242 0.030970728 -0.027561013
-0.015894342 -0.07055926 0.00017752801 0.008531891 -0.020261733 0.03440638 -0.0807913 -0.03363693
-0.060314283 -0.031859096 -0.008435463 -0.007826991 0.0009382657 -0.062320787 0.023744622 0.008818819
-0.054685522 0.022906113 -0.0057181753 -0.0040135263 -0.049182348 -0.042419292 -0.019106716 -0.00810149
0.008659865 -0.02918338 0.08060024 0.02779174 0.030628832 0.03433858 -0.007749955 0.032152526
-0.0021634528 -0.00830487 0.037267145 0.030858196 0.0019431829 0.04155527 0.10943148 0.030055027
0.03126157 0.018373694 0.00085280964 -0.015126945 0.005451402 -0.021085655 -0.021186106 0.0004154949
-0.033937052 0.03976289 0.031832613 0.026917892 -0.01908118 0.020345464 0.022843856 -0.00087742286
-0.060379926 -0.0018492437 0.07645509 -0.031081129 0.012283535 0.05011727 0.00012356044 0.0018886016
-0.01588711 0.026799882 0.071515545 -0.0061949557 -0.049308125 -0.012332985 -0.028430413 0.044340577
0.06707135 -0.0021320542 -0.043007087 0.015430809 -0.038449917 0.010087907 0.01271201 0.026597887
-0.010702531 0.094792515 -0.012757656 0.047556702 -0.017441355 0.0036953157 -0.025341554 0.026704248
-0.027420951 0.013144649 -0.0034875735 -0.009041684 -0.020230744 -0.086421125 -0.039458416 0.01281547
0.03414575 0.05629022 0.002301056 -0.008518701 0.05976602 0.011126053 -0.026286656 0.04194269
0.037429802 -0.024819452 -0.033345282 -0.00494574 -0.006607215 0.0017289269 -0.015709355 0.05415851
0.023063699 -0.02107498 -0.02918163 -0.04202887 0.011256694 -0.0029903338 -0.051054828 -0.051749043
-0.0052629956 -0.0011056336 0.02882087 0.056056023 0.05479779 -0.04762691 -0.033271577 -0.030090215
-0.0031422551 0.03436088 -0.013472407 -0.016405841 0.032035593 -0.020733304 0.07920646 0.039120946
-0.0400055 0.051969633 -0.057780463 0.045927916 -0.051134784 0.049032927 -0.00029808714 0.040857375
0.02385201 -0.061379142 -0.07640987 0.026752455 -0.054957096 -0.05606342 -0.031517133 -0.038274877
-0.028379267 -0.028398708 -0.054500304 -0.0659872 -0.04399505 0.0030055717 0.020215012 -0.06327793
-0.038559023 0.040733032 -0.021157011 0.0042815697 0.016325364 0.03358851 -0.01576506 0.014246854
0.010590789 -0.081501044 -0.014986239 0.07608157 0.0009774509 -0.0066025783 0.029661395 -0.024969984
-0.06753872 -0.023224331 0.01368587 0.007620066 0.031441998 0.019574733 -0.03245484 0.030700974
0.04668112 0.010390556 -0.049412187 0.02623069 -0.02621338 0.024735875 0.021906935 -0.004611184
0.008277502 -0.03327224 -0.013019577 0.013964678 0.01960682 0.014575857 0.03987166 0.03513345
-0.010490379 0.019599184 0.010617596 0.00990876 0.07074637 0.033828996 -0.045324963 -0.03346148
-0.0026483233 -0.042482845 0.0036247128 -0.015318126 -0.043082405 -0.04185152 0.021659045 -0.036553618
-0.01307385 0.056315638 -0.034333948 -0.025297914 -0.005605668 -0.025494281 -0.0154630365 -0.029540326
